--- Model Summary (model.summary()) ---
Model: "sequential"
_________________________________________________________________
 Layer (type)                Output Shape              Param #   
=================================================================
 conv1d (Conv1D)             (None, 3000, 16)          96        
                                                                 
 max_pooling1d (MaxPooling1D  (None, 750, 16)          0         
 )                                                               
                                                                 
 conv1d_1 (Conv1D)           (None, 750, 32)           2592      
                                                                 
 max_pooling1d_1 (MaxPooling  (None, 187, 32)          0         
 1D)                                                             
                                                                 
 last_conv (Conv1D)          (None, 187, 64)           10304     
                                                                 
 max_pooling1d_2 (MaxPooling  (None, 46, 64)           0         
 1D)                                                             
                                                                 
 flatten (Flatten)           (None, 2944)              0         
                                                                 
 dense (Dense)               (None, 64)                188480    
                                                                 
 dropout (Dropout)           (None, 64)                0         
                                                                 
 dense_1 (Dense)             (None, 3)                 195       
                                                                 
=================================================================
Total params: 201,667
Trainable params: 201,667
Non-trainable params: 0
_________________________________________________________________

==================================================

--- Detailed Layer Information (model.layers) ---
Layer 0: conv1d (Type: Conv1D)
…
