--- Model loaded from: JSON: /home/honormagicbook14/Projects/PyCharm/signxai-0.1.0/examples/data/models/tensorflow/ECG/RBBB/model.json, Weights: /home/honormagicbook14/Projects/PyCharm/signxai-0.1.0/examples/data/models/tensorflow/ECG/RBBB/weights.h5 ---
--- Model Summary (model.summary()) ---
Model: "sequential"
_________________________________________________________________
 Layer (type)                Output Shape              Param #   
=================================================================
 conv1d (Conv1D)             (None, 2000, 64)          2368      
                                                                 
 activation (Activation)     (None, 2000, 64)          0         
                                                                 
 max_pooling1d (MaxPooling1D  (None, 1000, 64)         0         
 )                                                               
                                                                 
 conv1d_1 (Conv1D)           (None, 1000, 64)          12352     
                                                                 
 activation_1 (Activation)   (None, 1000, 64)          0         
                                                                 
 max_pooling1d_1 (MaxPooling  (None, 500, 64)          0         
 1D)                                                             
                                                                 
 dropout (Dropout)           (None, 500, 64)           0         
                                                                 
 conv1d_2 (Conv1D)           (None, 500, 64)           12352     
                                                                 
 activation_2 (Activation)   (None, 500, 64)           0         
                                                                 
 max_pooling1d_2 (MaxPooling  (None, 250, 64)          0         
 1D)                                                             
                                                                 
 dropout_1 (Dropout)         (None, 250, 64)           0         
                                                                 
 conv1d_3 (Conv1D)           (None, 250, 64)           12352     
                                                                 
 activation_3 (Activation)   (None, 250, 64)           0         
                                                                 
 max_pooling1d_3 (MaxPooling  (None, 125, 64)          0         
 1D)                                                             
                                                                 
 dropout_2 (Dropout)         (None, 125, 64)           0         
                                                                 
 conv1d_4 (Conv1D)           (None, 125, 64)           12352     
                                                                 
 activation_4 (Activation)   (None, 125, 64)           0         
                                                                 
 max_pooling1d_4 (MaxPooling  (None, 62, 64)           0         
 1D)                                                             
                                                                 
 dropout_3 (Dropout)         (None, 62, 64)            0         
                                                                 
 global_average_pooling1d (G  (None, 64)               0         
 lobalAveragePooling1D)                                          
                                                                 
 dense (Dense)               (None, 64)                4160      
                                                                 
 activation_5 (Activation)   (None, 64)                0         
                                                                 
 dropout_4 (Dropout)         (None, 64)                0         
                                                                 
 dense_1 (Dense)             (None, 64)                4160      
                                                                 
 activation_6 (Activation)   (None, 64)                0         
                                                                 
 dropout_5 (Dropout)         (None, 64)                0         
                                                                 
 dense_2 (Dense)             (None, 64)                4160      
                                                                 
 activation_7 (Activation)   (None, 64)                0         
                                                                 
 dropout_6 (Dropout)         (None, 64)                0         
                                                                 
 dense_3 (Dense)             (None, 2)                 130       
                                                                 
 softmax (Softmax)           (None, 2)                 0         
                                                                 
=================================================================
Total params: 64,386
Trainable params: 64,386
Non-trainable params: 0
_________________________________________________________________

==================================================

--- Detailed Layer Information (model.layers) ---
Layer 0: conv1d (Type: Conv1D)
…
